image_recognition_project/M23.5-Model-Net-I65000-E200-R0.pth (torch, 427247 bytes, 8 tensors)

conv1.weight f4 [32, 1, 5, 5]
0	0x3e30b4d4	0.1725648
1	0xbb901311	-0.004396804
2	0xbdc44987	-0.09584337
3	0x3d49afdb	0.049239974
4	0xbe91b60b	-0.284592
5	0x3de54d62	0.111964
6	0x3e34270e	0.17593023
7	0xbcd0b55f	-0.02547711
8	0xbda6422f	-0.08118092
9	0xbe324df1	-0.17412545
10	0x3d3d91d2	0.046281643
11	0x3b63d30a	0.003476324
12	0x3cce5ea2	0.025191609
13	0x3d9b2a3f	0.07576417
14	0xbe408753	-0.18801622
15	0x3e1934e8	0.14961588
16	0xbcad1b4a	-0.021131177
17	0x3e318e4f	0.17339443
18	0x3ba251f1	0.004953616
19	0xbd45f9e7	-0.04833403
20	0xbe353e28	-0.17699492
21	0x3e129225	0.14313562
22	0x3dd866da	0.105664924
23	0x3ca1a278	0.019730791
24	0xbd8411e5	-0.064487256
25	0xbe3a5770	-0.18197417
26	0x3d7b299a	0.06131897
27	0x3e8b7cd3	0.2724367
28	0x3cb6c956	0.022312801
29	0xbd648d6a	-0.055798925
30	0xbb7f6f18	-0.003897613
31	0xbcf61540	-0.03003943
32	0x3e5fce50	0.21856046
33	0x3cdbe7af	0.026843874
34	0xbe46a58d	-0.1939909
35	0x3d2dd7ec	0.042442247
36	0x3da60382	0.08106138
37	0xbdfa1357	-0.1221072
38	0x3db36775	0.08759967
39	0x3e3c8b44	0.184125
40	0xbcd30180	-0.025757551
41	0xbbc45631	-0.00599172
42	0xbdb60326	-0.08887319
43	0xbd9ea6c2	-0.0774665
44	0xbdd8aeb7	-0.10580199
45	0x3d99f8b3	0.07518139
46	0xbdfefd96	-0.124507114
47	0x3e094971	0.13406922
48	0xbe638c24	-0.22221428
49	0x3d8d8869	0.06910784
50	0xbd22b7e5	-0.039726157
51	0x3e59d7e1	0.21273758
52	0x3d86b993	0.06578364
53	0x3ddd7deb	0.108150326
54	0xbdec83ac	-0.11548552
55	0x3e21f3f8	0.15815723
56	0x3d3a5738	0.045493335
57	0x3d9702ce	0.07373582
58	0xbe17485e	-0.147737
59	0xbd3a5d07	-0.045498874
60	0x3e3040d9	0.17212237
61	0xbc701a89	-0.014654764
62	0xbe195c40	-0.14976597
63	0xbcd56de1	-0.02605337
64	0xbcf67b90	-0.030088216
65	0x3d92e331	0.071722396
66	0xbdcb325e	-0.09921716
67	0xbdfb1952	-0.12260689
68	0xbdce22e2	-0.10065247
69	0xbddae083	-0.106873535
70	0xbe171fd2	-0.14758232
71	0xbe43258a	-0.19057289
72	0xbe094250	-0.13404202
73	0x3db63c38	0.088982046
74	0xbd8fe458	-0.07025975
75	0xbc4c2ece	-0.012462331
76	0x3dea3908	0.11436659
77	0x3d6d23ad	0.05789535
78	0x3d4d4761	0.0501169
79	0x3e2feeee	0.17180988
80	0x3d5e2cc0	0.054241896
81	0xbdb9cee4	-0.090726644
82	0xbe22f344	-0.15913111
83	0xbdcdff25	-0.100584306
84	0xbe1b2e16	-0.15154299
85	0x3d830a06	0.06398396
86	0x3dc90fbb	0.098174535
87	0x3e2107a3	0.1572557
88	0xbe78ec3d	-0.24308868
89	0xbd1d2832	-0.03836841
90	0xbd802959	-0.062578864
91	0xbc34651e	-0.011010436
92	0x3e3945ed	0.18093081
93	0x3e9a49cc	0.30134428
94	0x3cea05ce	0.028567221
95	0x3dee8f94	0.11648479
96	0xbd99a151	-0.07501472
97	0xbd146615	-0.036230166
98	0xbb4dcd22	-0.0031402786
99	0x3e060fd8	0.13091981
100	0x3c3ee8db	0.011652197
101	0xbe0fb355	-0.14033253
102	0x3ddfbf32	0.109251395
103	0x3e02a6c3	0.12758927
104	0x3e6a7828	0.22897398
105	0x3d314a02	0.04328347
106	0xbd1fdff1	-0.039031927
107	0xbd478c46	-0.04871776
108	0xbd63400e	-0.05548101
109	0xbdc22c98	-0.09481162
110	0xbdc5ee00	-0.096645355
111	0xbe213ff6	-0.15747055
112	0x3e269d13	0.16270857
113	0xbe2ae69f	-0.16689537
114	0xbe44482a	-0.19168153
115	0x3d0d6166	0.034516715
116	0x3e1c2871	0.15249802
117	0x3e845e38	0.25853133
118	0x3c3df7fd	0.01159477
119	0x3e5b9fe1	0.21447708
120	0xbe04cacd	-0.12967987
121	0xbc2bed2c	-0.010493558
122	0xbd44ee48	-0.048078805
123	0xbc943de0	-0.01809591
124	0xbe564af8	-0.20927036
125	0xbd722fc1	-0.059127573
126	0x3e172694	0.1476081
127	0x3df408f0	0.11915767
128	0xbce6eacc	-0.028188132
129	0x3e76ce64	0.2410217
130	0x3c9fcf9d	0.019508177
131	0x3d4a8430	0.04944247
132	0xbc7532da	-0.014965737
133	0x3e22d779	0.15902509
134	0x3e123c6c	0.14280862
135	0xbcb3a59f	-0.02192956
136	0xbda2088d	-0.07911787
137	0x3e039445	0.12849529
138	0x3e132b46	0.14371976
139	0x3e4f39b1	0.20236851
140	0xbe411daa	-0.18858972
141	0xbbeeaea7	-0.007284004
142	0xbe0a8e11	-0.13530757
143	0x3e74a427	0.23890744
144	0xbb027177	-0.0019904056
145	0xbe03f223	-0.12885337
146	0xbccdd543	-0.025126105
147	0x3ddfacaa	0.10921605
148	0x3e59825c	0.21241134
149	0x3da5f670	0.08103645
150	0xbe272c83	-0.16325574
151	0xbcd5ff86	-0.02612282
152	0x3d155b7e	0.036464207
153	0xbe1580bf	-0.14599894
154	0xbea716b7	-0.32634518
155	0xbe4452c5	-0.19172199
156	0x3e1e08cb	0.15433042
157	0xbe5ccc4f	-0.21562313
158	0xbcecad81	-0.028891327
159	0x3c99cceb	0.01877447
160	0x3c99a26f	0.018754212
161	0x3e3e0766	0.1855751
162	0x3e649787	0.22323428
163	0x3e25e817	0.16201816
164	0x3e792dcb	0.24333875
165	0x3e3d7a27	0.18503629
166	0x3dc6c910	0.097063184
167	0xbe4bd200	-0.19904327
168	0xbbb3ae0a	-0.0054833936
169	0x3e334a55	0.17508824
170	0xbb8432a1	-0.0040343557
171	0xbd3341fa	-0.043764092
172	0xbddbfc1d	-0.10741446
173	0x3dda331b	0.10654279
174	0xbd2cc08a	-0.042175807
175	0xbb5e8267	-0.0033952238
176	0xbe0deb34	-0.13859254
177	0xbe50bd69	-0.20384754
178	0xbdb566a2	-0.08857466
179	0x3e0e04fd	0.1386909
180	0xbda5cd49	-0.08095796
181	0xbdfdb636	-0.123882696
182	0xbe0d06ea	-0.13772169
183	0xbe14edda	-0.14543858
184	0x3e55b0dd	0.20868249
185	0xbde2e5f7	-0.110790186
186	0xbdc745fc	-0.09730145
187	0x3e0767b8	0.1322316
188	0x3e55156b	0.20808952
189	0x3e5bc62a	0.21462312
190	0x3d6adf8f	0.05734211
191	0xbd60d5be	-0.05489134
192	0x3da513d2	0.08060421
193	0x3e3aa52b	0.18227069
194	0xbe024a9a	-0.1272377
195	0x3e022320	0.12708712
196	0x3e4110ec	0.18854111
197	0xbda4a3f2	-0.080390826
198	0xbd366499	-0.04452953
199	0x3e18ba2a	0.14914766
200	0x3e3f26c0	0.18667126
201	0x3daec537	0.085337095
202	0x3d8e2abc	0.06941745
203	0x3bde2165	0.0067788833
204	0x3e18ac62	0.14909509
205	0xbe2b1684	-0.16707808
206	0x3df56dd1	0.119838364
207	0xbde52a31	-0.11189688
208	0x3dac9563	0.08426931
209	0x3e1ea10b	0.1549112
210	0x3e0b6c11	0.13615443
211	0xbe32224b	-0.17395894
212	0x3e853dff	0.26023862
213	0x3e458b47	0.19291411
214	0xbda9513c	-0.08267447
215	0x3daae2b5	0.08344022
216	0x3e3c377c	0.1838054
217	0x3e3df16c	0.18549126
218	0xbe22306c	-0.15838784
219	0x3e178545	0.14796932
220	0x3b005c1e	0.0019586156
221	0x3de560e3	0.1120012
222	0xbd407eba	-0.046995856
223	0x3d88049c	0.06641504
224	0x3e0996d9	0.1343645
225	0xbd5206ce	-0.05127602
226	0xbe28eb7e	-0.16496083
227	0xbdd64094	-0.10461536
228	0x3e5f714a	0.2182056
229	0x3e2ed1f0	0.17072272
230	0xbe23cde8	-0.15996516
231	0x3d5279c6	0.051385663
232	0xbcda371b	-0.026637604
233	0x3c71f311	0.014767424
234	0xbc3c3353	-0.011486846
235	0x3d7b4ef7	0.061354604
236	0xbe2592bb	-0.16169254
237	0xbc39ce1b	-0.011340643
238	0xbd81ad55	-0.063318886
239	0xbde2ac2d	-0.11067996
240	0xbdff6b6a	-0.124716595
241	0xbe17f844	-0.148408
242	0x3d0aba7f	0.033869263
243	0x3d876432	0.066109076
244	0x3d06863c	0.03284286
245	0x3e2c3890	0.16818452
246	0x3e318293	0.17334966
247	0x3e8935e8	0.2679894
248	0x3e5d391b	0.21603815
249	0x3e37e336	0.17957768
250	0xbd66bb70	-0.056331098
251	0x3e11bbeb	0.14231841
252	0x3e994ed6	0.2994296
253	0xbc9fa5db	-0.019488266
254	0xbe1a53e3	-0.15071063
255	0xbe841c2e	-0.2580275

conv1.bias f4 [32]
0	0xbe427549	-0.18990053
1	0xbd800d39	-0.06252522
2	0xbe2d0b41	-0.16898824
3	0xbdabaae3	-0.083822034
4	0xbbfe9fbb	-0.007770506
5	0xbe14a25d	-0.14515062
6	0xbddd82f0	-0.1081599
7	0x3e0a7d15	0.13524278
8	0x3e3d68cb	0.18497007
9	0x3e074a0b	0.13211839
10	0xbd8ad209	-0.06778342
11	0xbd446865	-0.04795112
12	0xbdb63fbd	-0.08898876
13	0x3e2f56b1	0.17122914
14	0xbd1519e4	-0.036401644
15	0xbd9f58b6	-0.07780592
16	0xbe1f5089	-0.15558065
17	0x3df540de	0.11975263
18	0xbd7b005f	-0.06127965
19	0xbdd4a4a3	-0.103829645
20	0x3d4fa2e6	0.05069246
21	0x3e32d162	0.17462686
22	0xbcb8cf07	-0.022559656
23	0xbdb6b403	-0.08921053
24	0x3e4b9584	0.19881254
25	0x3e09ae3a	0.13445368
26	0xbd4cd4c3	-0.050007593
27	0x3dd9b626	0.10630445
28	0xbdd85a9c	-0.10564157
29	0x3e01c84b	0.12674062
30	0xbe5133f0	-0.20429969
31	0xbd1f8e31	-0.038953964

conv2.weight f4 [64, 32, 5, 5]
0	0xbc1044ef	-0.008805498
1	0x3cc7f71c	0.024409823
2	0x3bb9c6d8	0.005669456
3	0x3b594bce	0.0033156755
4	0xbc521620	-0.012822658
5	0x3b89892c	0.0041972604
6	0x3bbd928c	0.005785292
7	0xbd0ecb1d	-0.034861673
8	0xb900df5c	-0.00012290239
9	0x3d2157ef	0.0393905
10	0xbb20895f	-0.0024495942
11	0x3bc92ce4	0.0061393846
12	0x3b72e58a	0.0037063085
13	0xbcaa0400	-0.02075386
14	0x3d1633b2	0.036670394
15	0x394661f0	0.00018919236
16	0x3d7c9987	0.061669853
17	0x3bb58f15	0.0055407383
18	0x3b1e1d45	0.0024126333
19	0x3bf55f6a	0.007488181
20	0xb9245ce2	-0.0001567486
21	0xbc93167b	-0.017955055
22	0x3d34b40f	0.04411703
23	0xbc46baa2	-0.012129458
24	0x3c808fcf	0.015693573
25	0x3ca23759	0.019801782
26	0xbc240ee6	-0.010013318
27	0xbc84cdf2	-0.016211484
28	0xbc8ca11d	-0.017166669
29	0xbcecd292	-0.028909001
30	0xbce9b04b	-0.028526446
31	0x3c9e2239	0.019303428
32	0xbcf2cbed	-0.029638255
33	0xb8d8fa8e	-0.00010346352
34	0x3c8813c4	0.016610987
35	0x3ba37a44	0.0049889404
36	0xbcf4b86f	-0.029873101
37	0xbcb67e42	-0.022277001
38	0x3b9051ae	0.004404268
39	0xbcb03a03	-0.021512037
40	0x3c428805	0.01187325
41	0x3c3f2406	0.0116663035
42	0x3d189015	0.037246782
43	0xbcd4aac9	-0.025960343
44	0xbbda082e	-0.006653807
45	0xbb4b1df5	-0.0030993198
46	0xbbb614bc	-0.005556671
47	0x3d4cab84	0.049968258
48	0xbd118f30	-0.035536945
49	0xbafd7660	-0.0019337647
50	0x3d0ef186	0.034898303
51	0xbd22cf85	-0.039748687
52	0x3beb617f	0.0071832533
53	0x3cce86f4	0.025210835
54	0xbc67b4df	-0.014142244
55	0x3c8431f6	0.016137104
56	0xbbbe31e4	-0.0058042873
57	0x3d52b690	0.051443636
58	0x3ba32493	0.004978725
59	0xb9b37840	-0.00034231134
60	0xbc4dfb8e	-0.012572182
61	0xbc3bb06f	-0.011455639
62	0xbb16497d	-0.0022931986
63	0x3c02c25a	0.007980907
64	0xbccde1eb	-0.02513214
65	0x3cb96272	0.02262995
66	0xbce0e1f4	-0.027451493
67	0xbd0ce309	-0.034396205
68	0xbccdfe2d	-0.025145615
69	0x39f10333	0.00045969486
70	0x3c6c61d4	0.014427621
71	0xbd2c3976	-0.042046987
72	0xbcddda2c	-0.027081572
73	0x3cbc4bb7	0.022985322
74	0x3c6dc032	0.014511155
75	0x3d1fa177	0.038972344
76	0xbd16e64e	-0.03684073
77	0x3d404db0	0.04694909
78	0x3c3a9447	0.011387891
79	0x3b56d6b3	0.003278178
80	0x3c125704	0.008931879
81	0xbd368cf3	-0.044568013
82	0xbb063a10	-0.0020481385
83	0xbc203a8e	-0.0097795855
84	0x3b058c0b	0.0020377662
85	0xbd399cf4	-0.045315698
86	0xbc3f7b3e	-0.011687098
87	0x3cca4b75	0.024694184
88	0x3d388935	0.045052726
89	0x3ce6db04	0.028180607
90	0xbbc2bc5f	-0.0059428657
91	0x3d13528b	0.03596739
92	0x3d1a9ec2	0.03774906
93	0x3c53a3b2	0.012917446
94	0xbbc12e97	-0.0058954465
95	0x3c3a9f56	0.011390528
96	0x3c1e9270	0.009678468
97	0x3d620815	0.05518349
98	0xbcda4d1c	-0.026648097
99	0xbca513ce	-0.020151045
100	0xbad28242	-0.0016060548
101	0xbc8d361b	-0.017237714
102	0xbc97c5f4	-0.018527009
103	0xbd306f0c	-0.043074653
104	0xbd23da7d	-0.04000329
105	0x3b41629b	0.0029508236
106	0x3cece038	0.02891551
107	0x3d1e3642	0.038625963
108	0xbce69c9f	-0.028150855
109	0x3cbff2d6	0.023431223
110	0xbc97d7f6	-0.018535595
111	0x3ca0e5d0	0.019640833
112	0x3ce2c2f3	0.02768085
113	0xbc40564a	-0.011739323
114	0x3c0c33c2	0.008557262
115	0x3cd21c3f	0.025648234
116	0x3d3706bd	0.04468416
117	0xbc4d0ccf	-0.012515261
118	0x3c8ab72e	0.01693305
119	0x3c17567a	0.009236926
120	0x3b6e966d	0.0036405579
121	0xbccdb9b1	-0.025112959
122	0x3c80154c	0.015635155
123	0x3aa85b18	0.0012844531
124	0xbc784a85	-0.015154486
125	0x3ca3a6c9	0.01997699
126	0x3d0fe469	0.03512994
127	0x3cdee73b	0.027209869
128	0xbd163c5b	-0.036678653
129	0xbcd8e184	-0.026474722
130	0x3c1a0b85	0.0094021605
131	0x3d078c79	0.03309295
132	0xbcaaaa68	-0.02083321
133	0xbc4cd1cf	-0.012501194
134	0xbd44452a	-0.047917522
135	0x3d1d708e	0.03843742
136	0x3d453b99	0.04815254
137	0xbd4b5c04	-0.0496483
138	0xbd5ec380	-0.054385662
139	0xbd2b6e77	-0.041853394
140	0x3c04ed3c	0.008113202
141	0xbbc4f59f	-0.0060107256
142	0xbc186026	-0.009300267
143	0xbc835110	-0.016029865
144	0xbcdd7ebe	-0.027037974
145	0x3ccdc8ca	0.025120158
146	0xbd4d0fca	-0.050063886
147	0xbd29a61b	-0.041418176
148	0xbd06f656	-0.032949768
149	0xbd18729c	-0.037218675
150	0x3cd6ac29	0.02620514
151	0xbc77447c	-0.015092012
152	0xbcae7aa2	-0.02129871
153	0x3c28eb87	0.01031006
154	0x3c6e2556	0.014535269
155	0x3ca40303	0.020020967
156	0xbbf6cc90	-0.00753171
157	0x3cab708a	0.020927686
158	0x3c84c12c	0.016205393
159	0xbcccd3e1	-0.025003375
160	0xbd44b270	-0.048021734
161	0xbce98d1e	-0.028509673
162	0x3c1748a7	0.00923363
163	0xbc0688fc	-0.008211371
164	0x3cd43894	0.025905885
165	0xba9d410b	-0.0011997534
166	0xbce808b3	-0.02832446
167	0x3d0c08e7	0.034188177
168	0x3cfae0fd	0.03062486
169	0x3bdbc0c5	0.0067063295
170	0x3c4be607	0.0124449795
171	0x3bc8caad	0.0061276765
172	0x3d5b84ed	0.053593565
173	0xbc8419b3	-0.016125536
174	0x3cfe8f9b	0.031074336
175	0xbc9b5d63	-0.018965429
176	0xbce06702	-0.027392868
177	0x3d355a47	0.04427555
178	0x3c3de36b	0.011589865
179	0x3d09a616	0.033605658
180	0xba1f98c0	-0.000608813
181	0x3c64a1fb	0.013954635
182	0x3d2351d7	0.03987297
183	0x3c67750f	0.01412703
184	0x3cb6ba97	0.02230577
185	0xbce3d00c	-0.027809165
186	0x3d046da9	0.032331143
187	0xbbf37a2d	-0.007430336
188	0xbbb21145	-0.0054341876
189	0xbb71c9e5	-0.003689402
190	0xbcc3276b	-0.023822507
191	0xbc8c7269	-0.017144399
192	0xbc4e3dfd	-0.012588021
193	0x3c77d92f	0.015127464
194	0xbc3ffc3b	-0.011717851
195	0x3b95601d	0.0045585767
196	0xbcd49a25	-0.025952408
197	0x3c30efbb	0.010799344
198	0x3cc5a721	0.024127545
199	0xbcb72818	-0.022357985
200	0x3d06687f	0.0328145
201	0x3b424da1	0.0029648321
202	0xbd11c79a	-0.035590746
203	0x3a375d34	0.00069947843
204	0xbd694a35	-0.056955535
205	0x3b901d5e	0.004398032
206	0x3d476074	0.04867597
207	0x3d0831c9	0.033250604
208	0xbbbee763	-0.0058259233
209	0xbd178fb7	-0.03700229
210	0x3cd6394b	0.026150366
211	0x3cef20eb	0.029190501
212	0xbcc0781f	-0.023494778
213	0xbca13d55	-0.019682566
214	0xbc9c4965	-0.019077966
215	0x3c4bec16	0.012446424
216	0xbc8adbd8	-0.016950533
217	0x3c3c97d1	0.011510805
218	0x3d5daeb3	0.054121684
219	0xbb86af2f	-0.004110239
220	0xbcd463cf	-0.025926499
221	0xbb89d711	-0.004206546
222	0x3ca87127	0.020561768
223	0xbd4034c4	-0.04692532
224	0xbd1a0af5	-0.037608106
225	0xbd32ad79	-0.043622468
226	0xbcc9feb6	-0.024657588
227	0xbc8e7a88	-0.017392412
228	0xbcdd8cef	-0.027044741
229	0xbc988e7f	-0.018622635
230	0x3c3f488d	0.011675012
231	0xbcf00870	-0.029300898
232	0x3d0c4e2f	0.03425425
233	0xba8f59ea	-0.0010936831
234	0x3b0bc394	0.002132629
235	0xbc8439a9	-0.016140776
236	0xbbdcb31b	-0.006735218
237	0x3cef51b6	0.029213767
238	0x3d3d0bca	0.04615382
239	0x3c93588a	0.017986555
240	0x3ca3bde3	0.019988006
241	0x3cf67ccc	0.030088805
242	0x3c6f3fe2	0.014602633
243	0x3d638dcc	0.05555515
244	0x3c5bda36	0.013418725
245	0xbc2969c7	-0.010340161
246	0xbccd09e6	-0.025029134
247	0x3c2c96e9	0.010534027
248	0xbae24b7b	-0.0017264927
249	0xbcf8fccb	-0.030393979
250	0x3bdfb7aa	0.0068273144
251	0x3c462ba9	0.01209537
252	0x3d048a66	0.03235855
253	0xbc8478cb	-0.01617088
254	0x3cac3f50	0.021026284
255	0x3cc3d1ee	0.023903813

conv2.bias f4 [64]
0	0x3cb72078	0.02235435
1	0x3cab723c	0.020928495
2	0x3a205ad6	0.0006117051
3	0xbc02774b	-0.007963012
4	0xbc59061c	-0.0132460855
5	0xbbedf0ab	-0.007261356
6	0x3cee1dfa	0.029067028
7	0x3c5308ea	0.012880543
8	0xbacd5b5f	-0.001566749
9	0xbceadbd4	-0.028669275
10	0x3bbf72e6	0.0058425544
11	0xbc0dedaa	-0.008662621
12	0x3c9108d5	0.017704407
13	0xbd0b26bf	-0.033972498
14	0xbcaffd64	-0.02148313
15	0x3c86fecb	0.016478917
16	0xbd06da9b	-0.032923322
17	0x3ce332a8	0.027734116
18	0x3b24cd7c	0.0025146892
19	0x3cdf745d	0.027277166
20	0xbcb054a8	-0.021524742
21	0x3c863ba8	0.016385868
22	0xbcd8fc36	-0.026487451
23	0x3d4b600e	0.04965215
24	0xbaa5267f	-0.0012599974
25	0xbd106004	-0.035247818
26	0xbbee8181	-0.0072786217
27	0xbbda7d14	-0.0066677425
28	0xbcbc6ef0	-0.023002118
29	0xbca7e71a	-0.02049594
30	0xbcb76541	-0.022387149
31	0xbad90bde	-0.0016559323
32	0xbc91cfc0	-0.017799258
33	0x3c930cf6	0.017950516
34	0x3b82d92f	0.0039931755
35	0xbb2e69ac	-0.0026613278
36	0x3cabecad	0.02098688
37	0xbc5e139e	-0.013554482
38	0xbbc76924	-0.006085532
39	0x3c77fccd	0.015135956
40	0xbcbeb25e	-0.023278411
41	0x3cee6b9d	0.029104048
42	0xbcf1e288	-0.029526964
43	0xbd02fe94	-0.031981066
44	0xbbd9fd51	-0.006652512
45	0x3cc00895	0.023441592
46	0x3c17727e	0.009243606
47	0x3c16bd3e	0.009200392
48	0xbbfb5974	-0.0076705758
49	0xbd138a59	-0.03602061
50	0x3ce27dec	0.027647935
51	0xbc074879	-0.008257025
52	0x3c13629a	0.008995676
53	0x3ca27365	0.019830415
54	0x3c03dac0	0.0080477595
55	0xbc16b889	-0.00919927
56	0x3d0a3b8a	0.033748187
57	0x3cbe86da	0.023257662
58	0xbbe48ce0	-0.0069748014
59	0x3cd1f458	0.025629207
60	0xbc4f4272	-0.012650119
61	0x3cf4a8cb	0.029865643
62	0x3d5a5d6a	0.053311743
63	0xbd05e143	-0.03268553

fc1.weight f4 [200, 256]
0	0x3b95d972	0.0045730406
1	0x3d21fc72	0.03954739
2	0xbc910092	-0.017700467
3	0xb9926edb	-0.00027929884
4	0xbd345673	-0.044027757
5	0xbc7cd218	-0.01543095
6	0xba86085a	-0.0010225878
7	0x3c7b30ce	0.01533146
8	0x3d472ea3	0.04862846
9	0x3bf44b2d	0.0074552507
10	0xbc5f67e0	-0.013635606
11	0xbcc5b812	-0.024135623
12	0xbd401283	-0.046892654
13	0x3c7330d4	0.0148431845
14	0xbcc9973f	-0.024608253
15	0x3d13a5f7	0.03604695
16	0xbd908690	-0.07056916
17	0xbd0ffd6f	-0.035153802
18	0xbcc9c211	-0.02462867
19	0xbd6845d4	-0.05670722
20	0x3d20a56a	0.03922025
21	0x3cab9d7f	0.020949123
22	0x3a24939f	0.0006278101
23	0xbce81cd0	-0.028334051
24	0xbc91782d	-0.0177575
25	0xbcf14b87	-0.02945496
26	0x3c1fd232	0.009754704
27	0xbcaec3ef	-0.021333663
28	0xbd452ab2	-0.04813642
29	0xbd7f9578	-0.062398404
30	0x3bd64771	0.006539278
31	0x3d89e12f	0.067324035
32	0x3d86b4c7	0.06577449
33	0xbc4ac599	-0.0123762125
34	0xbc9878ae	-0.018612232
35	0x3d781e1a	0.060575582
36	0xbbbc979b	-0.0057553775
37	0xbc8d8e28	-0.0172797
38	0xbbb91adb	-0.0056489534
39	0x3c94c2b0	0.01815924
40	0xbc982bb7	-0.018575532
41	0xbcfba522	-0.03071839
42	0x3d4657c9	0.048423562
43	0x3d1b9ad3	0.03798945
44	0xbbd21f57	-0.0064124274
45	0xbbd73c40	-0.0065684617
46	0xbc1f641e	-0.00972846
47	0xbccedd56	-0.025252026
48	0x3d5ea8d7	0.054360237
49	0x3d29085c	0.041267738
50	0xbc2997c3	-0.010351124
51	0xbb71e3ff	-0.0036909578
52	0xbd31e8ad	-0.043434788
53	0xbc88b445	-0.016687522
54	0x3b93cb0f	0.0045102905
55	0xbd69d23f	-0.057085272
56	0x3cc8b34e	0.024499562
57	0x3c94dbca	0.01817121
58	0xb959511f	-0.00020724953
59	0xbd4fe482	-0.05075503
60	0xbcfb6ef1	-0.03069255
61	0x3ada0822	0.0016634504
62	0x3bd7d57b	0.006586728
63	0x3d338bf0	0.043834627
64	0x3d3ea0cc	0.046540067
65	0xbd53c657	-0.051702823
66	0x3ce58a8a	0.028020162
67	0x3cdd533b	0.027017226
68	0xbc7c7963	-0.0154098
69	0xba9b92bb	-0.0011869291
70	0x3d6275ad	0.055288006
71	0x3c9e67c6	0.019336592
72	0x3cef60c5	0.029220948
73	0xbd2e431e	-0.042544477
74	0xbd01f095	-0.031723578
75	0xbd47d2c5	-0.04878499
76	0x3bf47b9a	0.0074610235
77	0xbc580f16	-0.0131871905
78	0x3bb3d6cc	0.0054882523
79	0xbbf73a7a	-0.0075448127
80	0x3d487c9e	0.04894697
81	0x3c9dbd62	0.019255344
82	0x3c0ba1db	0.008522476
83	0x3a8e3c3a	0.0010851689
84	0x3d70cd8e	0.058789782
85	0x3d8ac258	0.067753494
86	0xbd6cfb5a	-0.057856895
87	0xbd49a8d4	-0.049233273
88	0x3cca5c46	0.024702203
89	0x3d391552	0.04518635
90	0xbd17633f	-0.036959883
91	0xbd8648ca	-0.06556852
92	0xbcb43cd2	-0.022001658
93	0x3d64b30b	0.05583481
94	0x3c710883	0.014711502
95	0x3cb7d17e	0.02243876
96	0x38989c37	7.277022e-05
97	0xbd769361	-0.060199145
98	0x3d3c5126	0.045975827
99	0xbd52a167	-0.051423457
100	0xbc9e2399	-0.019304084
101	0xbd267fe5	-0.040649313
102	0x3d0650bd	0.03279184
103	0x3d2e3c4b	0.04253797
104	0xbd2cae19	-0.04215822
105	0xbce2564d	-0.027629042
106	0x3c012bd5	0.0078839855
107	0x3d0d10d3	0.034439873
108	0x3c97b458	0.018518612
109	0xbb463f7a	-0.0030250237
110	0xbc8b1cbd	-0.016981477
111	0xbca56f26	-0.020194601
112	0xbd82f259	-0.063938804
113	0x3d360cce	0.044445805
114	0x3d12e1f1	0.035860006
115	0xbd480058	-0.048828453
116	0x3d8a6960	0.0675838
117	0x3d46339d	0.048389066
118	0x3c9f2214	0.01942543
119	0xbd7363f1	-0.059421483
120	0x3c20b6f2	0.009809243
121	0x3c327671	0.010892496
122	0x3c01e297	0.007927558
123	0x3d4ba33d	0.049716223
124	0xbce39e49	-0.027785437
125	0xbd371369	-0.044696245
126	0xbcf32dfc	-0.029685013
127	0x3d5ce18a	0.05392603
128	0xbcd11809	-0.025524156
129	0xbcbbfa61	-0.022946538
130	0xbcf7a3d4	-0.030229487
131	0xbc2334aa	-0.009961287
132	0xbc65d90f	-0.014028802
133	0xbc459224	-0.012058768
134	0x3d8555b1	0.06510485
135	0x3c2a114a	0.010380099
136	0x3d50c0ac	0.050964996
137	0xbd6ec39a	-0.05829201
138	0x3d0c2562	0.03421534
139	0xbcf3e2c8	-0.029771224
140	0x3d172077	0.036896195
141	0xbc31572b	-0.010824005
142	0x3c80684b	0.01567473
143	0xbd1ae4e4	-0.037815943
144	0x3da44f2d	0.08022914
145	0x3b957f2f	0.0045622806
146	0x3d6d2120	0.05789292
147	0x3d845894	0.064622074
148	0xbd7992dc	-0.06093107
149	0xbd794cf1	-0.060864393
150	0x3ca15f42	0.019698743
151	0x3d553cc6	0.05205991
152	0xbd5abde8	-0.053403765
153	0x3c09ae67	0.008403397
154	0x3d412ea2	0.047163613
155	0xbcb9d886	-0.022686254
156	0x3d10f92f	0.03539389
157	0x3b228b87	0.0024802403
158	0xba896b47	-0.0010484242
159	0x3bf6699c	0.007519914
160	0xbd4c6e6d	-0.049909998
161	0xbcb994cd	-0.022653962
162	0x3bd666ad	0.0065430016
163	0x3ccd2a56	0.025044601
164	0xbbbea208	-0.0058176555
165	0x3d138079	0.036011193
166	0x3d69444f	0.05694991
167	0x3d8a9eab	0.06768545
168	0x3d628885	0.055305976
169	0x3c8dd8de	0.017315324
170	0x3d2ab966	0.041680716
171	0xbce5a94d	-0.02803483
172	0x3b9c2bf5	0.0047659823
173	0x3bd63152	0.006536641
174	0xbd28443a	-0.04108069
175	0xbc907324	-0.017633028
176	0xbd1bc518	-0.03802976
177	0xbd192b24	-0.037394658
178	0x3d04f933	0.032464217
179	0x3d873885	0.06602577
180	0xbbfd3684	-0.007727446
181	0xbd27024f	-0.040773686
182	0x3d3c2f2b	0.04594342
183	0x3d2e4624	0.04254736
184	0x3d798d5f	0.060925838
185	0x3d5c30d1	0.053757492
186	0xbd2bf88b	-0.041985076
187	0x3d084048	0.03326443
188	0x3cb46e50	0.022025257
189	0x3d27a7d0	0.040931523
190	0x3d5626e9	0.0522832
191	0xba64125c	-0.00087002455
192	0x3d35e5bb	0.04440854
193	0xbd88c67c	-0.06678483
194	0x3ce4ebc2	0.02794445
195	0x3c6a3878	0.01429569
196	0xbd6c0650	-0.057623208
197	0x3c6a81df	0.01431319
198	0xbc04e59b	-0.008111383
199	0xbc62d2ce	-0.013844205
200	0x3c8bf4d1	0.017084511
201	0xbcbb490c	-0.02286198
202	0xb9ac9eba	-0.00032924657
203	0xbdb2d34d	-0.08731709
204	0xbd1c17d4	-0.03810866
205	0x3ce25616	0.02762894
206	0x3d74a3e2	0.059726603
207	0xbd3af939	-0.045647833
208	0x3aad89ee	0.0013239959
209	0xbd8d7849	-0.06907708
210	0xbd22da6f	-0.039759096
211	0xbd334d24	-0.04377474
212	0x3c3ad780	0.011403918
213	0x3d662b80	0.05619383
214	0x3c601ae2	0.013678284
215	0x3d5231a2	0.051316865
216	0xbc989343	-0.018624907
217	0xbcf15ded	-0.029463733
218	0x3cc33d2e	0.023832884
219	0xbd7b1a6f	-0.061304506
220	0x3d0b9374	0.03407617
221	0x3ce759f3	0.028241133
222	0x3b9ffa7d	0.0048821555
223	0xbd3a3941	-0.045464758
224	0x3d2d992e	0.04238241
225	0xbd45c4a5	-0.048283238
226	0xbc0404cf	-0.008057787
227	0xbd518ba9	-0.05115858
228	0xbb95ba5d	-0.0045693354
229	0x3d60ea76	0.0549111
230	0x3c86f54a	0.016474385
231	0x3d260058	0.04052767
232	0xbd101761	-0.035178546
233	0x3c04d9a7	0.008108533
234	0xbb951b69	-0.0045503867
235	0xbc677efc	-0.0141293965
236	0xbc96d8c2	-0.018413905
237	0x3d5ff88b	0.05468039
238	0x3ce79248	0.028267995
239	0xbd8b34f3	-0.06797209
240	0x3c8adf63	0.016952222
241	0xbcf1cbd0	-0.02951613
242	0xbd767295	-0.060167868
243	0x3d254b6f	0.040355142
244	0xbd110ca4	-0.035412446
245	0xbc857dec	-0.016295396
246	0xbc1b33c3	-0.00947279
247	0x3c9f02bb	0.019410482
248	0x3cc4de9f	0.024031935
249	0xbccd9f79	-0.025100457
250	0xbd18fe72	-0.037352033
251	0x3b9d2533	0.0047956943
252	0xbce520ec	-0.0279698
253	0xbd1a6911	-0.037697855
254	0x3d1d53cf	0.038410004
255	0x3d470c6d	0.048595835

fc1.bias f4 [200]
0	0xbc8a1db0	-0.01685986
1	0x3ae82045	0.0017709812
2	0x3d00e823	0.031471383
3	0xbd5cc960	-0.053902984
4	0x3d961217	0.07327669
5	0x3b6851a4	0.0035449052
6	0xbcb69864	-0.022289462
7	0x3d4e090b	0.050301593
8	0xbd22f830	-0.03978747
9	0xbca61361	-0.020272912
10	0x3d19a35d	0.03750931
11	0xbd390d8c	-0.045178935
12	0xbc3f2363	-0.011666152
13	0xbc29c7dd	-0.0103625925
14	0x3d07051d	0.03296386
15	0xbcdf2698	-0.027240083
16	0xbccad9ab	-0.024761995
17	0xbd537c3a	-0.051632144
18	0xbcd3c943	-0.025852805
19	0x3d68890a	0.056771316
20	0xbc362d2c	-0.011119168
21	0xbd2315c0	-0.039815664
22	0x3d3d137d	0.046161164
23	0xbcfdde38	-0.030989751
24	0x3d131ca1	0.035915975
25	0xbcf4b1a5	-0.029869864
26	0x3d47dc45	0.04879405
27	0x3b6a49e9	0.003574962
28	0xbb8b1ad7	-0.004245143
29	0xbd1a813c	-0.037720904
30	0x3d070e72	0.03297276
31	0x3da9342b	0.082619034
32	0xbc426958	-0.011865936
33	0xbc5b0088	-0.013366826
34	0x3c866fcb	0.016410729
35	0x3be3e604	0.0069549102
36	0x3d3dae69	0.04630891
37	0xbc7ec6b7	-0.015550307
38	0x3b814259	0.003944677
39	0xbd51a060	-0.051178336
40	0xbcddfb87	-0.027097477
41	0x3d6380dd	0.055542815
42	0xbd531b26	-0.051539563
43	0x3d3d70fe	0.046250336
44	0xbbdbd2d4	-0.0067084823
45	0x3c8348c1	0.016025903
46	0x3cc98942	0.024601582
47	0xbcb1aa72	-0.02168772
48	0x3d906867	0.07051163
49	0xbc6ae092	-0.014335768
50	0x3d354cd0	0.044262707
51	0x3c92ccf5	0.017919997
52	0xbd2621a2	-0.04055942
53	0xbd4d9a43	-0.050195944
54	0x3c586a9b	0.0132090105
55	0x3c8dfd3d	0.017332667
56	0x3d10c606	0.0353451
57	0xbd66fe15	-0.056394655
58	0x3d530904	0.05152227
59	0xbc888202	-0.016663555
60	0xbd11ccf5	-0.035595853
61	0x3caee814	0.021350898
62	0x3d5c50dc	0.05378805
63	0x3d651b4f	0.055934247
64	0xbc9716e5	-0.018443534
65	0xbd2d7631	-0.042349044
66	0xbcdfb19b	-0.027306369
67	0x3c7d58a7	0.015463031
68	0x3d53cfa6	0.0517117
69	0xbd73fc61	-0.05956686
70	0xbc1c9736	-0.009557536
71	0x3d0f4401	0.034976963
72	0xbc038f43	-0.008029762
73	0xbca98dca	-0.020697493
74	0x3ba833fb	0.0051331497
75	0x3d4b81aa	0.049684204
76	0x3d0ef38f	0.034900244
77	0xbc5ac8ec	-0.013353568
78	0x3d4dec3e	0.050274126
79	0x3ce7ef60	0.028312385
80	0xbd1695b2	-0.036763854
81	0x3c9965ae	0.018725242
82	0xbbb0ba65	-0.0053933137
83	0xbd28dced	-0.041226316
84	0x3bfe0dc2	0.007753105
85	0x3d9bb3f9	0.076026864
86	0xbd3223a1	-0.04349101
87	0x3ce14506	0.027498733
88	0x3d695a59	0.056970928
89	0xbd7f03f2	-0.062259622
90	0x3d43b9d5	0.047784645
91	0xbb8bdcea	-0.0042682784
92	0x3d2c8369	0.04211751
93	0x3dca6893	0.09883227
94	0xbcce3933	-0.02517376
95	0xbc1e462a	-0.009660283
96	0x3d802ad5	0.062581696
97	0x3d2f1763	0.042746913
98	0xbcb56e7c	-0.02214741
99	0xbcc40ad7	-0.02393095
100	0x3d173954	0.036919907
101	0xbd6f82d7	-0.058474388
102	0x3c493b8c	0.0122822635
103	0x3ce700eb	0.02819868
104	0x3be45a01	0.006968737
105	0x3d94c6fd	0.072645165
106	0x3c5b7386	0.013394242
107	0x3b56d3ea	0.003278012
108	0xbd6d7020	-0.05796826
109	0x3ccbaa64	0.024861522
110	0x3d2c2021	0.042022828
111	0xbcd6604c	-0.026168965
112	0x3d613034	0.05497761
113	0x3d7f148f	0.062275466
114	0x3d303f25	0.04302897
115	0xbd7a9358	-0.061175674
116	0x3d5d5b81	0.054042343
117	0xbb81f2ba	-0.003965703
118	0x3cd014c8	0.025400534
119	0x3cb2daea	0.021832902
120	0x3d6eedf4	0.0583324
121	0xbcbaf0c8	-0.022819892
122	0xbd69b2ad	-0.057055164
123	0xbcdaa295	-0.026688853
124	0xbd17f772	-0.037101217
125	0xbd00b673	-0.031423997
126	0x3d345d47	0.04403427
127	0xbd00a0b2	-0.03140325
128	0xbd68f791	-0.056876723
129	0x3d419870	0.047264516
130	0xbd8a2e50	-0.06747115
131	0x3d2b8670	0.041876256
132	0xbb27f2ae	-0.0025626826
133	0x3d957e7e	0.07299517
134	0x3d652f14	0.0559531
135	0x3d88e54b	0.06684359
136	0xbb81d3ba	-0.0039620074
137	0xbb322430	-0.0027182214
138	0x3cc4b356	0.024011295
139	0x3d87eca4	0.066369325
140	0x3bf097f0	0.007342331
141	0x3d0de2d7	0.03464016
142	0x3c9901f6	0.018677693
143	0x3c1a786e	0.009428127
144	0x3d07a9ac	0.033120796
145	0xbd39f830	-0.045402706
146	0x3d655ef9	0.055998776
147	0x3cf93b82	0.030423883
148	0xbd14ed45	-0.03635909
149	0x3c1f698a	0.009729752
150	0xbb923dbc	-0.0044629257
151	0x3d8ae443	0.06781819
152	0xbc343e8f	-0.011001243
153	0xbd1260cf	-0.035736855
154	0xbc342dbb	-0.010997231
155	0xbd74df8a	-0.059783496
156	0x3d8f36ea	0.06992896
157	0xbd0a4f23	-0.033766877
158	0xbc286232	-0.010277318
159	0x3d309540	0.043111086
160	0xbd153e85	-0.036436576
161	0x3d1fb009	0.03898624
162	0x3cc97aaf	0.024594633
163	0x3da4acb2	0.080407515
164	0xb9bcb6fc	-0.00035994488
165	0x3d578def	0.052625593
166	0x3d12ef28	0.03587261
167	0xbc9a405b	-0.018829515
168	0xbb8790ed	-0.0041371495
169	0xbd615171	-0.05500931
170	0x3b6f5a67	0.003652239
171	0xbc3ef6fc	-0.011655565
172	0xbd3debbb	-0.04636739
173	0x3d281367	0.04103413
174	0x3d3a9f00	0.04556179
175	0xbd3574af	-0.04430073
176	0xbd2acb6a	-0.041697897
177	0x3b0e7818	0.0021739062
178	0x3d99e6ea	0.075147465
179	0x3c355922	0.011068614
180	0x3c32d854	0.010915834
181	0xbbb4ff82	-0.005523623
182	0x3988794b	0.00026030312
183	0xbd2f55ab	-0.04280631
184	0xbca412bc	-0.020028464
185	0xbcb96571	-0.022631379
186	0x3d145a96	0.036219202
187	0x3d74788c	0.059685275
188	0xbbe403f2	-0.006958478
189	0xbc104668	-0.008805849
190	0xbd068697	-0.0328432
191	0x3b105081	0.002202064
192	0xbd1d3531	-0.038380805
193	0x3d31be35	0.043394286
194	0xbb57b77f	-0.0032915769
195	0x3d8ee00c	0.06976327
196	0x3d84263e	0.064526066
197	0xbd16cb11	-0.036814753
198	0xbd60d2b7	-0.054888453
199	0xbbe5e50f	-0.0070158313

fc2.weight f4 [13, 200]
0	0x3d0bad8d	0.034101058
1	0xbc9ade2d	-0.01890477
2	0x3d7acf76	0.061233006
3	0xbd3a3ba6	-0.04546704
4	0xbcb11ede	-0.021621164
5	0xbcc395c7	-0.02387513
6	0xb7e8128c	-2.7665192e-05
7	0x3c44ed25	0.01201943
8	0xbd069d0f	-0.032864626
9	0x3c401c4e	0.011725498
10	0x3ccd0768	0.025027946
11	0x3cd5d408	0.026102081
12	0x3c9bb2a0	0.019006073
13	0xba0537ca	-0.00050818606
14	0xbd2fd626	-0.042928837
15	0xbc71a47f	-0.014748692
16	0xbb4e8b48	-0.0031516124
17	0xbcd967cb	-0.02653875
18	0x3c09645f	0.008385747
19	0x3cb64ecc	0.02225437
20	0xbd7a3b50	-0.06109172
21	0xbc910c53	-0.017706072
22	0xbc4290f5	-0.011875381
23	0x3ebb3992	0.3656736
24	0xbcd13759	-0.025539087
25	0xbd6f4c28	-0.058422238
26	0xbce62bf9	-0.02809714
27	0x3d21e565	0.03952541
28	0x3b6dc40a	0.0036280178
29	0xbcab857c	-0.020937674
30	0xbd7da4e5	-0.061924834
31	0x3ea5573a	0.3229311
32	0x3d0259c8	0.031823903
33	0x3bb35b0b	0.0054734997
34	0x3d663064	0.056198493
35	0x3c324d0e	0.010882629
36	0xbcd8bad8	-0.026456282
37	0xbba0a54b	-0.004902517
38	0xbd136ce9	-0.035992537
39	0x3d86c0ee	0.06579767
40	0x3cda2465	0.026628682
41	0x3cefb752	0.029262219
42	0xbb56ee9c	-0.003279603
43	0x3cf1a058	0.029495403
44	0x3c57f57b	0.013181086
45	0x3cf63b3e	0.030057546
46	0xbdd5162b	-0.10404619
47	0x3d2322a9	0.039827976
48	0x3befd889	0.007319514
49	0x3ca62ef2	0.020286057
50	0x3c3826d1	0.011239723
51	0xbd246cc0	-0.040142775
52	0x3cca1356	0.024667423
53	0xbcc041b5	-0.023468832
54	0xbc9103fb	-0.017702093
55	0x3d0180e4	0.03161706
56	0xbb996f99	-0.004682493
57	0xbd94ed48	-0.0727182
58	0x3c2b4a95	0.010454793
59	0xbc6c274a	-0.014413664
60	0xbc422b23	-0.011851105
61	0xbc792c92	-0.01520838
62	0xbd4e66c9	-0.050390992
63	0xbbf870d2	-0.0075818086
64	0x3c83ab31	0.016072841
65	0xbcd4386d	-0.025905812
66	0xbc1b0e5d	-0.009463874
67	0xbe565453	-0.20930605
68	0x3c47ae23	0.0121875135
69	0xbb7edadb	-0.0038887772
70	0x3c9778eb	0.018490275
71	0xba015c9b	-0.0004934759
72	0xbd23fc34	-0.04003544
73	0x3c96ad72	0.018393252
74	0x3d3a2f67	0.045455363
75	0x3c60ab22	0.013712676
76	0xbc943bc4	-0.018094905
77	0xbcc401c0	-0.023926616
78	0x3d38720a	0.04503063
79	0x3c856e14	0.01628784
80	0xbd33305c	-0.04374729
81	0xbb7d1e78	-0.0038622897
82	0xbccffec1	-0.02539003
83	0x3d89836c	0.0671452
84	0x3af0aa91	0.001836138
85	0xbcb2388e	-0.021755483
86	0xbd093698	-0.03349933
87	0x3c331ed1	0.01093264
88	0x3d4f157f	0.05055761
89	0x3c55f96a	0.013059953
90	0xbd083e3a	-0.03326247
91	0xbd851d76	-0.0649976
92	0xbce38cff	-0.027777193
93	0xbda778c9	-0.08177335
94	0xbd65dc2a	-0.056118168
95	0x3cf913c3	0.030404931
96	0xbd547ba4	-0.051875725
97	0xbc39745d	-0.011319247
98	0xbd6d045c	-0.057865486
99	0xbd11c72b	-0.035590332
100	0x3c619a09	0.013769635
101	0x3c84797f	0.016171215
102	0x3c0382fd	0.0080268355
103	0x3c828642	0.01593316
104	0xbc145c23	-0.00905517
105	0xbc452d61	-0.012034745
106	0xbbaee0b1	-0.005336844
107	0xbd38273e	-0.0449593
108	0x3d262f6b	0.040572565
109	0x3cd3139f	0.025766192
110	0xbd9ffbca	-0.07811697
111	0x3d4922c9	0.04910544
112	0xbd311248	-0.043230325
113	0xbc32a374	-0.010903228
114	0xbcc175a7	-0.023615671
115	0xbd31af4a	-0.04338006
116	0x3d16059c	0.036626443
117	0xbd909936	-0.07060473
118	0x3eec2d72	0.46128422
119	0xbc57f4ee	-0.013180954
120	0xbc44f7a6	-0.012021935
121	0x3cd87e7c	0.0264275
122	0xbd709805	-0.058738727
123	0x3cecff10	0.028930217
124	0x3c2231f4	0.009899605
125	0xbc84f5c6	-0.016230475
126	0x3b8c8e9b	0.004289461
127	0xbd66cdda	-0.05634866
128	0xbc395d5d	-0.011313763
129	0xbba8469e	-0.0051353713
130	0x3ae1b463	0.0017219897
131	0xbc8d95e0	-0.01728338
132	0xbce95867	-0.028484536
133	0xbcbd04e3	-0.02307362
134	0xbc8563ee	-0.016283002
135	0x3b166f55	0.0022954543
136	0x3c239407	0.009984023
137	0x3d265806	0.04061129
138	0xbc7b6b03	-0.015345338
139	0x3c5fe29a	0.013664866
140	0xb949d355	-0.00019247581
141	0xbb300ae2	-0.0026861955
142	0xbb98bc40	-0.004661113
143	0x3d81c30c	0.0633603
144	0x3c671a13	0.014105338
145	0xbcba76c9	-0.02276172
146	0x3d7281c9	0.059205804
147	0xbc8bf787	-0.017085804
148	0xbd1c0363	-0.038089167
149	0x3c90b6c8	0.017665282
150	0x3b3714f3	0.002793607
151	0xbc286b70	-0.010279521
152	0xbc94af04	-0.01814986
153	0x3c0fefe2	0.00878522
154	0xbcff999e	-0.03120118
155	0x3c86cb48	0.016454354
156	0xbd72a8c7	-0.05924299
157	0x3c3d1a33	0.011541891
158	0x3d087e57	0.033323612
159	0xbbe40066	-0.0069580553
160	0xbcaaafc6	-0.020835768
161	0xbd6869d0	-0.056741536
162	0xbd1748d1	-0.036934678
163	0xbceb1f10	-0.028701335
164	0x3b8fbc57	0.0043864655
165	0xbcc1687f	-0.023609398
166	0x3c3821cc	0.011238527
167	0xbd77e33a	-0.060519435
168	0xbda74cf6	-0.08168976
169	0xbbc42cd9	-0.0059867916
170	0xbd249acb	-0.040186685
171	0xbc5f8891	-0.0136434
172	0xbc99da19	-0.018780755
173	0x3d2187c2	0.03943611
174	0x3d1dab1f	0.038493272
175	0xbc81b2b6	-0.015832286
176	0x3cfaa62d	0.030596817
177	0xbd5425f4	-0.051794007
178	0xbcb1e169	-0.02171393
179	0x3bf076e8	0.0073383935
180	0xbaee9caa	-0.0018204649
181	0x3ddcae0c	0.10775384
182	0xbd062bb5	-0.032756526
183	0xbb5856b9	-0.0033010675
184	0xba06be43	-0.00051400455
185	0x3c25f7ed	0.010129911
186	0xbc213360	-0.009838909
187	0x3cfd6844	0.030933507
188	0x3c5a11f5	0.013309945
189	0xbc15fc5c	-0.009154405
190	0xbd842780	-0.064528465
191	0x3c69e5be	0.014275966
192	0xbcbbefef	-0.022941558
193	0xbca6ff5d	-0.020385439
194	0x3d2a21da	0.04153619
195	0xbd05ac46	-0.032634996
196	0x3c4582a4	0.012055073
197	0xbbff919b	-0.00779934
198	0xbc288fe6	-0.010288214
199	0xbd1d8c67	-0.038463976
200	0xbb23f870	-0.0025019906
201	0xbc967b7e	-0.018369433
202	0xbc837b50	-0.01605001
203	0x3c05e7f2	0.008172976
204	0x3c0a4afd	0.00844073
205	0x3d3c7422	0.04600919
206	0x3c59805e	0.013275234
207	0x3c83c8f5	0.016087035
208	0xbcc02537	-0.023455245
209	0x3ce80b4f	0.028325705
210	0x3cee7966	0.029110622
211	0xbd36fdeb	-0.04467575
212	0xbb583deb	-0.003299589
213	0x3b98ba50	0.004660882
214	0x3d839e6e	0.064267024
215	0x3bf0b64f	0.0073459516
216	0x3ab42e01	0.001374662
217	0x3c9f3b9d	0.019437606
218	0x3be747d0	0.0070581213
219	0x3c880b25	0.016606877
220	0x3da20d06	0.0791264
221	0xbcfb881f	-0.030704556
222	0x3a2a3ae3	0.000649376
223	0x3c5ab37d	0.013348457
224	0xbb104c78	-0.0022018235
225	0x3d7a32eb	0.061083715
226	0x3c5354a0	0.012898594
227	0x3b0efa0f	0.0021816527
228	0xbaa3956b	-0.0012480443
229	0x3d5a9149	0.05336121
230	0x3f22b13a	0.63551676
231	0xbcb3b67c	-0.021937601
232	0x3d0a1bc0	0.03371787
233	0x3c16540d	0.009175313
234	0xbcb8c62c	-0.022555433
235	0x3c8d0220	0.017212927
236	0x3d81ab24	0.063314706
237	0xbb03fb49	-0.0020138791
238	0x3d581f41	0.05276418
239	0xbc01149d	-0.00787845
240	0xbda64040	-0.081177235
241	0xbbe7597c	-0.007060228
242	0x3c936c9f	0.01799613
243	0xbc357a41	-0.011076511
244	0x3c05509d	0.0081368955
245	0x3c297e82	0.010345103
246	0xbd0bb7f5	-0.034110982
247	0x3ce51374	0.027963378
248	0xbcb83972	-0.02248833
249	0xbd1cd964	-0.038293257
250	0x3d03089d	0.031990636
251	0xbc9e48f4	-0.019321896
252	0x3be1d54b	0.0068918816
253	0xbbe6883a	-0.0070352824
254	0xbcd756bc	-0.026286475
255	0x3d773edc	0.06036268

fc2.bias f4 [13]
0	0x3dcc30f3	0.09970274
1	0x3d76b92b	0.060235184
2	0x3e0225c6	0.12709722
3	0x3d9dddd7	0.07708328
4	0x3de80663	0.11329343
5	0x3d967cb5	0.07348005
6	0x3dcee791	0.101027615
7	0x3ddfae40	0.109219074
8	0x3da79fa0	0.08184743
9	0x3da92c41	0.08260394
10	0xbadad146	-0.0016694448
11	0xbb47842b	-0.0030443768
12	0xbb4bbb82	-0.0031087105
